…
**[[files/Screenshot from 2020-12-03 22-13-58.png|none|thumb]]Confusion Matrix: 
* Ok, so it looks like it just picks one class and onyl predicts that. That would explain the fluctuation before (it would pick some other class and stick with it), as well as the common occurance of 0.433 accuracy
* Since the model is clearly undeerfitting, if I add some more parameters it might be better
* I lookedup up some Kaggle kernels on this dataset, and came accross a MobileNet solution. 
* Architecture: 
*  <code>Model: "sequential_3"  Layer (type)                 Output Shape              Param #</code>     
*  <code>mobilenet_1.00_224 (Function (None, 7, 7, 1024)        3228288</code>    
*  <code>global_average_pooling2d_3 ( (None, 1024)              0</code>        
*  <code>dropout_16 (Dropout)         (None, 1024)              0</code>        
*  <code>dense_35 (Dense)             (None, 512)               524800</code>     
*  <code>dropout_17 (Dropout)         (None, 512)               0</code>        
*  <code>dense_36 (Dense)             (None, 15)                7695</code>      
*  <code>Total params: 3,760,783 Trainable params: 3,738,895 Non-trainable params: 21,888</code> 
*  It's a lot larger (the other one was ~52k params)
* Results:
** 1 - Multilabel Accuracy: 0.814484480913307
** AUROC: 0.5928323820989334
**[[files/Screenshot from 2020-12-03 22-14-28.png|none|thumb]]Confusion matrix: 
* So the larger model is "actually trying" which is good
* Wha tis interesting that multilabel is worse on the larger one, but AUROC is better on the larger one
…
